android/app/src/main/assets/yolo-fastest_int8.tflite (tflite, 603039 bytes, 85 tensors)

model/conv2d/Conv2D i1 [8, 3, 3, 3]
0	0x2e	46
1	0xf8	-8
2	0x5a	90
3	0x2e	46
4	0x0f	15
5	0x46	70
6	0xf5	-11
7	0xa6	-90
8	0xea	-22
9	0x65	101
10	0x1b	27
11	0x2e	46
12	0x7f	127
13	0x49	73
14	0x42	66
15	0x51	81
16	0x05	5
17	0x08	8
18	0x1b	27
19	0xbd	-67
20	0xe9	-23
21	0x5a	90
22	0x1c	28
23	0xfe	-2
24	0x2f	47
25	0xf4	-12
26	0xe7	-25
27	0x39	57
28	0x34	52
29	0x3b	59
30	0x20	32
31	0x3e	62
32	0x40	64
33	0x1a	26
34	0x2c	44
35	0x50	80
36	0x19	25
37	0x1c	28
38	0x17	23
39	0xff	-1
40	0x04	4
41	0x08	8
42	0xe9	-23
43	0xe9	-23
44	0xfd	-3
45	0x07	7
46	0xfc	-4
47	0x16	22
48	0xad	-83
49	0xad	-83
50	0xd1	-47
51	0xa4	-92
52	0x81	-127
53	0xe7	-25
54	0x2f	47
55	0xbf	-65
56	0xe3	-29
57	0x6a	106
58	0x9b	-101
59	0xa6	-90
60	0x4f	79
61	0xa1	-95
62	0xa3	-93
63	0x5b	91
64	0xf4	-12
65	0x01	1
66	0x7f	127
67	0xac	-84
68	0xa5	-91
69	0x73	115
70	0xa8	-88
71	0xa5	-91
72	0x39	57
73	0x06	6
74	0x14	20
75	0x61	97
76	0xe5	-27
77	0xec	-20
78	0x5b	91
79	0xcf	-49
80	0xea	-22
81	0x37	55
82	0x2c	44
83	0x16	22
84	0x28	40
85	0x05	5
86	0x1a	26
87	0x43	67
88	0x1d	29
89	0xd9	-39
90	0xfb	-5
91	0x11	17
92	0x7f	127
93	0x18	24
94	0x09	9
95	0x73	115
96	0x12	18
97	0xfe	-2
98	0x08	8
99	0xf6	-10
100	0x02	2
101	0x28	40
102	0xe3	-29
103	0xf4	-12
104	0x2c	44
105	0x21	33
106	0x17	23
107	0xd8	-40
108	0xfb	-5
109	0x12	18
110	0xf7	-9
111	0xc8	-56
112	0xf3	-13
113	0x00	0
114	0x06	6
115	0x17	23
116	0xeb	-21
117	0xb7	-73
118	0xe9	-23
119	0x00	0
120	0x81	-127
121	0xde	-34
122	0x08	8
123	0xba	-70
124	0xeb	-21
125	0xf3	-13
126	0xef	-17
127	0xed	-19
128	0xca	-54
129	0xab	-85
130	0xe9	-23
131	0xde	-34
132	0xd3	-45
133	0xf9	-7
134	0xd7	-41
135	0xd2	-46
136	0x05	5
137	0xd2	-46
138	0xa5	-91
139	0xe6	-26
140	0xf1	-15
141	0xed	-19
142	0x27	39
143	0xf5	-11
144	0xad	-83
145	0xe0	-32
146	0xe0	-32
147	0x81	-127
148	0xb8	-72
149	0xf6	-10
150	0xc6	-58
151	0xf9	-7
152	0x08	8
153	0xd1	-47
154	0x0b	11
155	0xd1	-47
156	0xaf	-81
157	0xdf	-33
158	0xe8	-24
159	0xe4	-28
160	0x0b	11
161	0xe2	-30
162	0xc9	-55
163	0x13	19
164	0x33	51
165	0xad	-83
166	0x12	18
167	0x50	80
168	0xe2	-30
169	0x12	18
170	0x26	38
171	0xc1	-63
172	0x0e	14
173	0x37	55
174	0x81	-127
175	0x0c	12
176	0x4e	78
177	0xac	-84
178	0xff	-1
179	0x24	36
180	0xf4	-12
181	0x04	4
182	0x1b	27
183	0xc0	-64
184	0x03	3
185	0x27	39
186	0xc8	-56
187	0xf8	-8
188	0x04	4
189	0xc4	-60
190	0xf8	-8
191	0xad	-83
192	0xdc	-36
193	0xe9	-23
194	0x9e	-98
195	0x02	2
196	0x0a	10
197	0xa0	-96
198	0xc9	-55
199	0xfb	-5
200	0xc2	-62
201	0x3a	58
202	0x27	39
203	0xb9	-71
204	0x69	105
205	0x54	84
206	0xb7	-73
207	0xf5	-11
208	0x2a	42
209	0xca	-54
210	0x54	84
211	0x40	64
212	0xad	-83
213	0x7f	127
214	0x74	116
215	0x8d	-115

model/conv2d_1/Conv2D i1 [8, 1, 1, 8]
0	0x28	40
1	0x02	2
2	0xfb	-5
3	0xf2	-14
4	0x74	116
5	0x7f	127
6	0xd8	-40
7	0x0e	14
8	0xe5	-27
9	0x5f	95
10	0x36	54
11	0x03	3
12	0x03	3
13	0xf5	-11
14	0xf0	-16
15	0x81	-127
16	0x81	-127
17	0xe9	-23
18	0x2a	42
19	0xc6	-58
20	0x14	20
21	0x05	5
22	0xfd	-3
23	0xdd	-35
24	0x12	18
25	0xe0	-32
26	0x25	37
27	0xf4	-12
28	0xf7	-9
29	0x04	4
30	0x81	-127
31	0x29	41
32	0x0e	14
33	0xe0	-32
34	0x7f	127
35	0xfc	-4
36	0x05	5
37	0x04	4
38	0x23	35
39	0xca	-54
40	0x07	7
41	0x13	19
42	0x7f	127
43	0xfe	-2
44	0x04	4
45	0xfd	-3
46	0xc2	-62
47	0x25	37
48	0xb9	-71
49	0x42	66
50	0x43	67
51	0xe1	-31
52	0x45	69
53	0xfd	-3
54	0xe5	-27
55	0x81	-127
56	0x81	-127
57	0x17	23
58	0x12	18
59	0x00	0
60	0x21	33
61	0x18	24
62	0xf3	-13
63	0x11	17

model/conv2d_2/Conv2D i1 [4, 1, 1, 8]
0	0xed	-19
1	0x3f	63
2	0x19	25
3	0x35	53
4	0x23	35
5	0x81	-127
6	0xe1	-31
7	0x39	57
8	0xcf	-49
9	0x7f	127
10	0x61	97
11	0xb7	-73
12	0x42	66
13	0x6d	109
14	0xd8	-40
15	0x75	117
16	0x06	6
17	0xef	-17
18	0x7f	127
19	0xf8	-8
20	0xe2	-30
21	0xcb	-53
22	0xf9	-7
23	0xb4	-76
24	0x2a	42
25	0x50	80
26	0xab	-85
27	0xf5	-11
28	0x2a	42
29	0x17	23
30	0xe2	-30
31	0x81	-127

model/conv2d_3/Conv2D i1 [8, 1, 1, 4]
0	0xd9	-39
1	0xcb	-53
2	0xb7	-73
3	0x7f	127
4	0xf9	-7
5	0x81	-127
6	0x28	40
7	0xa2	-94
8	0xe1	-31
9	0xee	-18
10	0x81	-127
11	0x34	52
12	0xac	-84
13	0x81	-127
14	0x5c	92
15	0xa9	-87
16	0xdc	-36
17	0xd2	-46
18	0x81	-127
19	0x11	17
20	0x81	-127
21	0x0f	15
22	0xf5	-11
23	0xd6	-42
24	0x81	-127
25	0xc6	-58
26	0x2d	45
27	0xbf	-65
28	0xed	-19
29	0xd0	-48
30	0x81	-127
31	0x1d	29

model/conv2d_4/Conv2D i1 [4, 1, 1, 8]
0	0xef	-17
1	0xfa	-6
2	0xeb	-21
3	0xa4	-92
4	0x31	49
5	0x48	72
6	0xfc	-4
7	0x7f	127
8	0xb7	-73
9	0xdf	-33
10	0x81	-127
11	0xb1	-79
12	0x61	97
13	0xcf	-49
14	0x45	69
15	0x73	115
16	0xb7	-73
17	0x7f	127
18	0xdf	-33
19	0xf2	-14
20	0xdb	-37
21	0x4a	74
22	0xe1	-31
23	0xe4	-28
24	0x7f	127
25	0xf9	-7
26	0x5e	94
27	0x55	85
28	0xad	-83
29	0xfd	-3
30	0xfe	-2
31	0xe1	-31

model/conv2d_5/Conv2D i1 [24, 1, 1, 4]
0	0xe5	-27
1	0xbe	-66
2	0xcb	-53
3	0x7f	127
4	0x81	-127
5	0x6e	110
6	0xdb	-37
7	0x02	2
8	0x1e	30
9	0x4a	74
10	0xf7	-9
11	0x81	-127
12	0xa2	-94
13	0x81	-127
14	0x10	16
15	0xe8	-24
16	0x78	120
17	0x7f	127
18	0xec	-20
19	0xdf	-33
20	0x1b	27
21	0x04	4
22	0x7f	127
23	0xf4	-12
24	0x83	-125
25	0x7f	127
26	0xdc	-36
27	0xed	-19
28	0xe3	-29
29	0x96	-106
30	0x04	4
31	0x81	-127
32	0x20	32
33	0x5d	93
34	0xdc	-36
35	0x7f	127
36	0xe2	-30
37	0x81	-127
38	0x30	48
39	0x27	39
40	0xf6	-10
41	0xc9	-55
42	0xd1	-47
43	0x7f	127
44	0x81	-127
45	0x88	-120
46	0xfa	-6
47	0x1d	29
48	0xa5	-91
49	0x81	-127
50	0x10	16
51	0x79	121
52	0x81	-127
53	0xa5	-91
54	0x08	8
55	0x45	69
56	0x81	-127
57	0x2f	47
58	0xf2	-14
59	0xcd	-51
60	0xe1	-31
61	0x81	-127
62	0xfa	-6
63	0x31	49
64	0x14	20
65	0x3a	58
66	0x2b	43
67	0x81	-127
68	0x9c	-100
69	0x7f	127
70	0xfd	-3
71	0xed	-19
72	0xc0	-64
73	0x81	-127
74	0xe8	-24
75	0x50	80
76	0xda	-38
77	0xa5	-91
78	0xf2	-14
79	0x7f	127
80	0x7f	127
81	0xc2	-62
82	0x13	19
83	0xed	-19
84	0xff	-1
85	0xcd	-51
86	0xd5	-43
87	0x7f	127
88	0xc2	-62
89	0x81	-127
90	0xec	-20
91	0x54	84
92	0xdb	-37
93	0x81	-127
94	0xf2	-14
95	0x36	54

model/conv2d_6/Conv2D i1 [8, 1, 1, 24]
0	0x30	48
1	0x10	16
2	0xe7	-25
3	0x11	17
4	0x0c	12
5	0xfa	-6
6	0xd5	-43
7	0x17	23
8	0xf6	-10
9	0xe2	-30
10	0x30	48
11	0x20	32
12	0x15	21
13	0xca	-54
14	0xff	-1
15	0x01	1
16	0x37	55
17	0xfe	-2
18	0x0b	11
19	0xff	-1
20	0x13	19
21	0x37	55
22	0xe3	-29
23	0x81	-127
24	0x26	38
25	0x22	34
26	0x1c	28
27	0xd3	-45
28	0xda	-38
29	0xef	-17
30	0xc8	-56
31	0x0b	11
32	0x00	0
33	0x07	7
34	0x18	24
35	0xc8	-56
36	0x17	23
37	0x07	7
38	0x3a	58
39	0xfa	-6
40	0x2b	43
41	0x2e	46
42	0xee	-18
43	0x04	4
44	0x81	-127
45	0x21	33
46	0xf6	-10
47	0x09	9
48	0xfe	-2
49	0x01	1
50	0x7f	127
51	0x01	1
52	0x01	1
53	0x0b	11
54	0x02	2
55	0x02	2
56	0x01	1
57	0x34	52
58	0x00	0
59	0xfe	-2
60	0x42	66
61	0x05	5
62	0xf4	-12
63	0xfe	-2
64	0x02	2
65	0xf7	-9
66	0xfc	-4
67	0xfa	-6
68	0x1b	27
69	0xfd	-3
70	0xf7	-9
71	0xf9	-7
72	0xea	-22
73	0xe4	-28
74	0x1b	27
75	0x22	34
76	0x25	37
77	0x08	8
78	0x29	41
79	0x12	18
80	0xf6	-10
81	0x04	4
82	0xee	-18
83	0x25	37
84	0x0d	13
85	0xfa	-6
86	0x34	52
87	0x03	3
88	0xe1	-31
89	0xe9	-23
90	0xfc	-4
91	0xfe	-2
92	0x81	-127
93	0xed	-19
94	0xfd	-3
95	0xff	-1
96	0xde	-34
97	0x0f	15
98	0xf5	-11
99	0xcb	-53
100	0xcc	-52
101	0x14	20
102	0xfa	-6
103	0xee	-18
104	0xa7	-89
105	0xf4	-12
106	0xe9	-23
107	0xd1	-47
108	0x26	38
109	0x87	-121
110	0xff	-1
111	0x84	-124
112	0xd1	-47
113	0xb1	-79
114	0x11	17
115	0x81	-127
116	0xef	-17
117	0xaf	-81
118	0x0b	11
119	0x12	18
120	0x71	113
121	0xd9	-39
122	0xcc	-52
123	0x7f	127
124	0x74	116
125	0xb9	-71
126	0xfc	-4
127	0xd1	-47
128	0xca	-54
129	0xf5	-11
130	0x60	96
131	0x72	114
132	0xb1	-79
133	0xf4	-12
134	0x34	52
135	0xd0	-48
136	0x59	89
137	0xd9	-39
138	0xcd	-51
139	0xb1	-79
140	0x2b	43
141	0x1b	27
142	0xd8	-40
143	0x03	3
144	0x00	0
145	0x08	8
146	0x1a	26
147	0xff	-1
148	0x01	1
149	0x08	8
150	0xff	-1
151	0x81	-127
152	0xff	-1
153	0xcd	-51
154	0x05	5
155	0x06	6
156	0xfb	-5
157	0x02	2
158	0xcf	-49
159	0x09	9
160	0xfc	-4
161	0x0a	10
162	0x06	6
163	0x05	5
164	0xeb	-21
165	0x09	9
166	0x04	4
167	0x01	1
168	0xcc	-52
169	0xc3	-61
170	0xd9	-39
171	0xe7	-25
172	0xe1	-31
173	0x8c	-116
174	0xfc	-4
175	0xe5	-27
176	0x08	8
177	0x02	2
178	0xdd	-35
179	0xd6	-42
180	0x05	5
181	0x23	35
182	0x1f	31
183	0x07	7
184	0xdb	-37
185	0x0d	13
186	0x82	-126
187	0x11	17
188	0xff	-1
189	0xe4	-28
190	0x81	-127
191	0xa8	-88

model/conv2d_7/Conv2D i1 [32, 1, 1, 8]
0	0x32	50
1	0x13	19
2	0x81	-127
3	0x70	112
4	0x02	2
5	0x04	4
6	0xbd	-67
7	0xf6	-10
8	0xb2	-78
9	0xb8	-72
10	0xe5	-27
11	0x2e	46
12	0x05	5
13	0x81	-127
14	0x0a	10
15	0x09	9
16	0x15	21
17	0xf9	-7
18	0x05	5
19	0x25	37
20	0xf6	-10
21	0x02	2
22	0x81	-127
23	0xf2	-14
24	0x0a	10
25	0x3a	58
26	0x7f	127
27	0x2d	45
28	0xf5	-11
29	0x0e	14
30	0xcd	-51
31	0x1d	29
32	0xf2	-14
33	0x88	-120
34	0x72	114
35	0x81	-127
36	0x20	32
37	0xf2	-14
38	0x74	116
39	0x24	36
40	0x06	6
41	0xed	-19
42	0x0f	15
43	0xff	-1
44	0x07	7
45	0xf7	-9
46	0x81	-127
47	0x0f	15
48	0xd4	-44
49	0xa6	-90
50	0x41	65
51	0xe7	-25
52	0x7f	127
53	0x35	53
54	0x00	0
55	0x07	7
56	0x7f	127
57	0x32	50
58	0x1a	26
59	0xdf	-33
60	0xd2	-46
61	0xda	-38
62	0xfc	-4
63	0xd2	-46
64	0x0e	14
65	0x7f	127
66	0x06	6
67	0x7b	123
68	0xed	-19
69	0x0f	15
70	0xa7	-89
71	0x06	6
72	0xfb	-5
73	0x40	64
74	0x81	-127
75	0x4e	78
76	0xfd	-3
77	0x00	0
78	0xd4	-44
79	0xfa	-6
80	0x27	39
81	0x69	105
82	0x11	17
83	0x7f	127
84	0xe6	-26
85	0xe0	-32
86	0x3b	59
87	0xbe	-66
88	0x7f	127
89	0xfd	-3
90	0x09	9
91	0x12	18
92	0x42	66
93	0xc8	-56
94	0x0a	10
95	0x44	68
96	0xfa	-6
97	0x6d	109
98	0x39	57
99	0x7f	127
100	0x0a	10
101	0xe8	-24
102	0xff	-1
103	0xd5	-43
104	0x2a	42
105	0x5d	93
106	0x26	38
107	0xa1	-95
108	0x81	-127
109	0xf2	-14
110	0x36	54
111	0xe3	-29
112	0xf2	-14
113	0x05	5
114	0x7f	127
115	0xfa	-6
116	0x08	8
117	0xf9	-7
118	0x01	1
119	0x18	24
120	0x16	22
121	0x98	-104
122	0x19	25
123	0x57	87
124	0xe6	-26
125	0x7f	127
126	0xfc	-4
127	0xfd	-3
128	0xd1	-47
129	0x2e	46
130	0xec	-20
131	0xbb	-69
132	0x7f	127
133	0xeb	-21
134	0xc6	-58
135	0x29	41
136	0x7f	127
137	0x00	0
138	0x29	41
139	0x0c	12
140	0x04	4
141	0xeb	-21
142	0xce	-50
143	0x59	89
144	0xee	-18
145	0x43	67
146	0x81	-127
147	0x3b	59
148	0xf6	-10
149	0xf9	-7
150	0x4f	79
151	0x00	0
152	0xec	-20
153	0x7f	127
154	0x2c	44
155	0xc1	-63
156	0xfe	-2
157	0x3c	60
158	0x0a	10
159	0xe3	-29
160	0x01	1
161	0x03	3
162	0xff	-1
163	0x0d	13
164	0x06	6
165	0xf7	-9
166	0x81	-127
167	0xff	-1
168	0x2c	44
169	0x35	53
170	0xc2	-62
171	0xcc	-52
172	0xd2	-46
173	0x1a	26
174	0xcf	-49
175	0x7f	127
176	0xf5	-11
177	0x86	-122
178	0x27	39
179	0x7f	127
180	0x01	1
181	0x45	69
182	0xf9	-7
183	0x22	34
184	0x7f	127
185	0xd0	-48
186	0xf0	-16
187	0x38	56
188	0x27	39
189	0xac	-84
190	0x1b	27
191	0x0f	15
192	0xe9	-23
193	0x35	53
194	0x13	19
195	0x1a	26
196	0xf5	-11
197	0x10	16
198	0x1e	30
199	0x7f	127
200	0xb8	-72
201	0x1f	31
202	0xf8	-8
203	0xfa	-6
204	0x2c	44
205	0x5b	91
206	0x3c	60
207	0x7f	127
208	0x26	38
209	0x30	48
210	0xe3	-29
211	0x81	-127
212	0xf0	-16
213	0xba	-70
214	0xec	-20
215	0x2c	44
216	0x7f	127
217	0xdc	-36
218	0xee	-18
219	0x1a	26
220	0x34	52
221	0xcb	-53
222	0x0d	13
223	0xfd	-3
224	0xc0	-64
225	0xb1	-79
226	0xf4	-12
227	0x43	67
228	0x7f	127
229	0x3a	58
230	0xd5	-43
231	0x57	87
232	0xfb	-5
233	0x09	9
234	0x07	7
235	0x08	8
236	0x7f	127
237	0xe5	-27
238	0xc2	-62
239	0xa4	-92
240	0xcc	-52
241	0x81	-127
242	0x00	0
243	0x53	83
244	0x48	72
245	0x0f	15
246	0xff	-1
247	0x96	-106
248	0x81	-127
249	0x12	18
250	0xde	-34
251	0xbd	-67
252	0x37	55
253	0x30	48
254	0xfa	-6
255	0x77	119

model/conv2d_8/Conv2D i1 [8, 1, 1, 32]
0	0xb2	-78
1	0x4d	77
2	0xb9	-71
3	0xbd	-67
4	0xda	-38
5	0xe0	-32
6	0x6b	107
7	0xae	-82
8	0xc0	-64
9	0xe7	-25
10	0xa7	-89
11	0xad	-83
12	0xe8	-24
13	0x0d	13
14	0xaf	-81
15	0x19	25
16	0xc2	-62
17	0xc8	-56
18	0xe1	-31
19	0x69	105
20	0xa4	-92
21	0xbd	-67
22	0xe0	-32
23	0x07	7
24	0xd2	-46
25	0xbd	-67
26	0x76	118
27	0xd2	-46
28	0xc0	-64
29	0x06	6
30	0x2a	42
31	0x81	-127
32	0xbe	-66
33	0xf9	-7
34	0xbb	-69
35	0xfd	-3
36	0x96	-106
37	0x64	100
38	0xe0	-32
39	0x7f	127
40	0xc9	-55
41	0x78	120
42	0x62	98
43	0xf8	-8
44	0x1d	29
45	0xb9	-71
46	0x62	98
47	0xb2	-78
48	0xd4	-44
49	0xfe	-2
50	0xd5	-43
51	0xcc	-52
52	0x96	-106
53	0xdf	-33
54	0xdf	-33
55	0x31	49
56	0xe8	-24
57	0xd8	-40
58	0xf1	-15
59	0x46	70
60	0x49	73
61	0xf3	-13
62	0x49	73
63	0x12	18
64	0x33	51
65	0x00	0
66	0x40	64
67	0xd2	-46
68	0x16	22
69	0x17	23
70	0xfb	-5
71	0x40	64
72	0x34	52
73	0x0f	15
74	0x30	48
75	0x81	-127
76	0x10	16
77	0xed	-19
78	0xb4	-76
79	0xfd	-3
80	0xf2	-14
81	0xdf	-33
82	0x40	64
83	0xe7	-25
84	0x1f	31
85	0x0f	15
86	0xe9	-23
87	0x1d	29
88	0xe8	-24
89	0xcd	-51
90	0xc2	-62
91	0xe1	-31
92	0xe3	-29
93	0xf8	-8
94	0x03	3
95	0x22	34
96	0x13	19
97	0xee	-18
98	0x07	7
99	0xea	-22
100	0x50	80
101	0x81	-127
102	0x17	23
103	0xcb	-53
104	0x54	84
105	0xd0	-48
106	0xdc	-36
107	0xfe	-2
108	0x21	33
109	0x3d	61
110	0xac	-84
111	0x21	33
112	0x30	48
113	0xff	-1
114	0x00	0
115	0x45	69
116	0x3c	60
117	0x2b	43
118	0x1d	29
119	0xf2	-14
120	0xff	-1
121	0x06	6
122	0xe3	-29
123	0xd6	-42
124	0xd9	-39
125	0x08	8
126	0xda	-38
127	0xef	-17
128	0x3f	63
129	0xdc	-36
130	0x38	56
131	0x81	-127
132	0xc9	-55
133	0xbe	-66
134	0x28	40
135	0x05	5
136	0x0b	11
137	0xd1	-47
138	0x33	51
139	0x01	1
140	0x93	-109
141	0x30	48
142	0x23	35
143	0xf2	-14
144	0xe1	-31
145	0x2b	43
146	0xa1	-95
147	0xfb	-5
148	0xc1	-63
149	0x41	65
150	0x0b	11
151	0x00	0
152	0xf6	-10
153	0x0c	12
154	0x10	16
155	0x0c	12
156	0xfa	-6
157	0x5e	94
158	0xe7	-25
159	0x0c	12
160	0x0c	12
161	0x52	82
162	0x26	38
163	0xf4	-12
164	0xe0	-32
165	0xd6	-42
166	0xc1	-63
167	0x09	9
168	0xf6	-10
169	0xdc	-36
170	0xb8	-72
171	0x30	48
172	0xcf	-49
173	0x03	3
174	0xfe	-2
175	0x43	67
176	0x34	52
177	0x12	18
178	0xf3	-13
179	0x02	2
180	0x02	2
181	0x00	0
182	0xa6	-90
183	0x78	120
184	0xb9	-71
185	0xfe	-2
186	0xab	-85
187	0x7f	127
188	0x4e	78
189	0x1b	27
190	0x11	17
191	0x15	21
192	0xe3	-29
193	0x24	36
194	0x6a	106
195	0x2c	44
196	0x7f	127
197	0x1b	27
198	0x98	-104
199	0x21	33
200	0x41	65
201	0xf8	-8
202	0x0c	12
203	0x06	6
204	0x0c	12
205	0xa5	-91
206	0xe5	-27
207	0x08	8
208	0x39	57
209	0x21	33
210	0x19	25
211	0xb3	-77
212	0xbf	-65
213	0xf1	-15
214	0x21	33
215	0xd8	-40
216	0xfd	-3
217	0xc4	-60
218	0xa3	-93
219	0x07	7
220	0x0b	11
221	0x21	33
222	0x1f	31
223	0x16	22
224	0xb7	-73
225	0xde	-34
226	0x81	-127
227	0x4e	78
228	0xf9	-7
229	0xdd	-35
230	0x17	23
231	0x0e	14
232	0xf7	-9
233	0xf6	-10
234	0xd0	-48
235	0xb9	-71
236	0x37	55
237	0xe4	-28
238	0x12	18
239	0xcd	-51
240	0x0c	12
241	0xac	-84
242	0x54	84
243	0x36	54
244	0xe3	-29
245	0xf6	-10
246	0xeb	-21
247	0xf1	-15
248	0xfa	-6
249	0x88	-120
250	0x45	69
251	0xd3	-45
252	0x02	2
253	0xa0	-96
254	0x25	37
255	0xb8	-72

model/conv2d_9/Conv2D i1 [32, 1, 1, 8]
0	0x3d	61
1	0x09	9
2	0x1c	28
3	0xe9	-23
4	0xe3	-29
5	0x05	5
6	0xdc	-36
7	0x7f	127
8	0xf8	-8
9	0x7f	127
10	0xf2	-14
11	0x8d	-115
12	0x53	83
13	0xad	-83
14	0xc2	-62
15	0x2c	44
16	0x1c	28
17	0x8a	-118
18	0x81	-127
19	0x01	1
20	0x17	23
21	0xf6	-10
22	0x8f	-113
23	0x3d	61
24	0x6c	108
25	0x61	97
26	0x55	85
27	0x69	105
28	0x0a	10
29	0x87	-121
30	0x81	-127
31	0xfa	-6
32	0x1f	31
33	0xf7	-9
34	0x20	32
35	0xe6	-26
36	0x0f	15
37	0xd3	-45
38	0xfe	-2
39	0x7f	127
40	0x41	65
41	0xda	-38
42	0x27	39
43	0x81	-127
44	0xc3	-61
45	0xf9	-7
46	0xd4	-44
47	0xee	-18
48	0x01	1
49	0xb7	-73
50	0x7f	127
51	0xa9	-87
52	0xfa	-6
53	0x07	7
54	0x85	-123
55	0x02	2
56	0x81	-127
57	0x68	104
58	0xef	-17
59	0xcc	-52
60	0x71	113
61	0xe3	-29
62	0xda	-38
63	0x8f	-113
64	0xf5	-11
65	0xfb	-5
66	0x4d	77
67	0xfb	-5
68	0xf7	-9
69	0x0a	10
70	0xfe	-2
71	0x7f	127
72	0xa7	-89
73	0x62	98
74	0xf0	-16
75	0x92	-110
76	0xa3	-93
77	0x15	21
78	0x27	39
79	0x81	-127
80	0xcb	-53
81	0xe5	-27
82	0x64	100
83	0x5c	92
84	0xe8	-24
85	0xf8	-8
86	0x7f	127
87	0xb0	-80
88	0xa7	-89
89	0x1e	30
90	0x7f	127
91	0x25	37
92	0xfc	-4
93	0x14	20
94	0xe4	-28
95	0x17	23
96	0x2d	45
97	0xd5	-43
98	0xe7	-25
99	0x66	102
100	0xd7	-41
101	0x39	57
102	0x16	22
103	0x7f	127
104	0x2d	45
105	0x64	100
106	0xf9	-7
107	0x81	-127
108	0x49	73
109	0xb9	-71
110	0x04	4
111	0x46	70
112	0x28	40
113	0xe3	-29
114	0xe9	-23
115	0x27	39
116	0x7f	127
117	0x13	19
118	0xf6	-10
119	0xce	-50
120	0x37	55
121	0xd3	-45
122	0x7f	127
123	0xb1	-79
124	0xf7	-9
125	0xef	-17
126	0xb9	-71
127	0x0a	10
128	0xec	-20
129	0xd8	-40
130	0x81	-127
131	0x14	20
132	0x18	24
133	0x06	6
134	0x1b	27
135	0x32	50
136	0xab	-85
137	0xf5	-11
138	0x22	34
139	0x0f	15
140	0x62	98
141	0xbc	-68
142	0xbc	-68
143	0x7f	127
144	0xe7	-25
145	0x81	-127
146	0x05	5
147	0x77	119
148	0x52	82
149	0xce	-50
150	0x39	57
151	0x82	-126
152	0x1b	27
153	0x3d	61
154	0xea	-22
155	0x4f	79
156	0x33	51
157	0xf1	-15
158	0x7f	127
159	0x23	35
160	0x0e	14
161	0xcb	-53
162	0x54	84
163	0xef	-17
164	0xf8	-8
165	0xe0	-32
166	0x81	-127
167	0x05	5
168	0xfa	-6
169	0xd9	-39
170	0xe5	-27
171	0xdb	-37
172	0x09	9
173	0x04	4
174	0xfd	-3
175	0x81	-127
176	0x23	35
177	0x7f	127
178	0x92	-110
179	0x66	102
180	0xdf	-33
181	0x08	8
182	0x40	64
183	0x0c	12
184	0x1d	29
185	0xc8	-56
186	0x7f	127
187	0x13	19
188	0x65	101
189	0xd9	-39
190	0xe0	-32
191	0xfa	-6
192	0xd1	-47
193	0xe8	-24
194	0xf0	-16
195	0x34	52
196	0x81	-127
197	0x1e	30
198	0x0e	14
199	0xb5	-75
200	0xf2	-14
201	0x5d	93
202	0x81	-127
203	0x5f	95
204	0x15	21
205	0xe4	-28
206	0x65	101
207	0xec	-20
208	0x0c	12
209	0xa5	-91
210	0x81	-127
211	0x1f	31
212	0xe0	-32
213	0x11	17
214	0x20	32
215	0xbf	-65
216	0x13	19
217	0xec	-20
218	0xf3	-13
219	0xd1	-47
220	0x7f	127
221	0xed	-19
222	0xe1	-31
223	0xf3	-13
224	0x0f	15
225	0xd8	-40
226	0x27	39
227	0xd7	-41
228	0x81	-127
229	0x01	1
230	0xed	-19
231	0x4c	76
232	0x0c	12
233	0x0f	15
234	0x81	-127
235	0xf1	-15
236	0xf6	-10
237	0x19	25
238	0x11	17
239	0x10	16
240	0xf2	-14
241	0x0b	11
242	0x81	-127
243	0xfa	-6
244	0x19	25
245	0x27	39
246	0xdc	-36
247	0x63	99
248	0xfb	-5
249	0x04	4
250	0xcd	-51
251	0xf8	-8
252	0x7f	127
253	0x15	21
254	0x02	2
255	0x25	37

model/conv2d_10/Conv2D i1 [8, 1, 1, 32]
0	0xb5	-75
1	0xdf	-33
2	0xeb	-21
3	0x13	19
4	0xbc	-68
5	0x10	16
6	0xea	-22
7	0x60	96
8	0xf0	-16
9	0x0d	13
10	0xc4	-60
11	0x81	-127
12	0x09	9
13	0xd0	-48
14	0xf4	-12
15	0x07	7
16	0xeb	-21
17	0xbc	-68
18	0x08	8
19	0x04	4
20	0xf2	-14
21	0xe7	-25
22	0xee	-18
23	0xf9	-7
24	0xc6	-58
25	0x26	38
26	0xf2	-14
27	0xa5	-91
28	0xe2	-30
29	0x92	-110
30	0xbe	-66
31	0xb7	-73
32	0x0e	14
33	0xbc	-68
34	0x7f	127
35	0xcb	-53
36	0xe8	-24
37	0x1f	31
38	0xc5	-59
39	0x11	17
40	0x60	96
41	0x9c	-100
42	0xa4	-92
43	0x05	5
44	0xb1	-79
45	0xba	-70
46	0x18	24
47	0x99	-103
48	0x43	67
49	0xe6	-26
50	0x0a	10
51	0x8a	-118
52	0x77	119
53	0xd1	-47
54	0x10	16
55	0x6b	107
56	0xdd	-35
57	0xea	-22
58	0xfd	-3
59	0xfd	-3
60	0xf6	-10
61	0xc2	-62
62	0x24	36
63	0xfd	-3
64	0xe5	-27
65	0x51	81
66	0x73	115
67	0x3b	59
68	0xb5	-75
69	0x70	112
70	0xf7	-9
71	0xfc	-4
72	0x2b	43
73	0xff	-1
74	0x7f	127
75	0xdf	-33
76	0xe8	-24
77	0x2b	43
78	0xf7	-9
79	0xf0	-16
80	0x16	22
81	0x28	40
82	0x13	19
83	0xe1	-31
84	0xdf	-33
85	0xb9	-71
86	0x41	65
87	0xe6	-26
88	0x21	33
89	0x5c	92
90	0xe0	-32
91	0xd4	-44
92	0xc3	-61
93	0xe3	-29
94	0x55	85
95	0xc6	-58
96	0x14	20
97	0x5a	90
98	0x96	-106
99	0xad	-83
100	0x08	8
101	0xb6	-74
102	0xd2	-46
103	0xbf	-65
104	0xc5	-59
105	0x12	18
106	0x67	103
107	0xef	-17
108	0x58	88
109	0x48	72
110	0x2f	47
111	0x75	117
112	0xd5	-43
113	0xf8	-8
114	0x28	40
115	0x81	-127
116	0xaf	-81
117	0xf7	-9
118	0x2a	42
119	0x8c	-116
120	0x2f	47
121	0x1c	28
122	0xe4	-28
123	0x11	17
124	0x02	2
125	0x7a	122
126	0x02	2
127	0xea	-22
128	0x33	51
129	0x0d	13
130	0x00	0
131	0x36	54
132	0x43	67
133	0xd9	-39
134	0x3d	61
135	0xdb	-37
136	0xf1	-15
137	0x1a	26
138	0x24	36
139	0x21	33
140	0xcd	-51
141	0xb5	-75
142	0x81	-127
143	0xd8	-40
144	0x29	41
145	0x2e	46
146	0xda	-38
147	0x07	7
148	0x1c	28
149	0x98	-104
150	0xd4	-44
151	0xb0	-80
152	0x2b	43
153	0xcf	-49
154	0x25	37
155	0x9d	-99
156	0x2e	46
157	0xcd	-51
158	0x54	84
159	0xb3	-77
160	0x0d	13
161	0x41	65
162	0xf9	-7
163	0xfa	-6
164	0xf1	-15
165	0x38	56
166	0xec	-20
167	0xfd	-3
168	0xed	-19
169	0xdc	-36
170	0xe9	-23
171	0xfc	-4
172	0x06	6
173	0x50	80
174	0xc2	-62
175	0xf0	-16
176	0x5b	91
177	0xe1	-31
178	0x0e	14
179	0xe7	-25
180	0xd0	-48
181	0xf4	-12
182	0xd7	-41
183	0x0f	15
184	0x6d	109
185	0x5f	95
186	0x7f	127
187	0xbc	-68
188	0xd4	-44
189	0x28	40
190	0xd4	-44
191	0xcf	-49
192	0x21	33
193	0xf6	-10
194	0x10	16
195	0x39	57
196	0x08	8
197	0x2c	44
198	0x2b	43
199	0x02	2
200	0x15	21
201	0x2c	44
202	0x39	57
203	0xdf	-33
204	0xeb	-21
205	0x0f	15
206	0x23	35
207	0xdf	-33
208	0xd6	-42
209	0x4b	75
210	0x03	3
211	0xff	-1
212	0xf7	-9
213	0x27	39
214	0x7f	127
215	0xf5	-11
216	0x2b	43
217	0x29	41
218	0xf6	-10
219	0x22	34
220	0xf1	-15
221	0xe1	-31
222	0xfd	-3
223	0xea	-22
224	0xbe	-66
225	0x11	17
226	0xf2	-14
227	0xf3	-13
228	0xba	-70
229	0xf7	-9
230	0x94	-108
231	0x44	68
232	0x04	4
233	0x2e	46
234	0x11	17
235	0xbf	-65
236	0x13	19
237	0x2a	42
238	0x15	21
239	0xd0	-48
240	0x00	0
241	0x32	50
242	0x7f	127
243	0xe5	-27
244	0xd0	-48
245	0xd3	-45
246	0xea	-22
247	0x27	39
248	0x01	1
249	0xfa	-6
250	0x0c	12
251	0x16	22
252	0xbc	-68
253	0x10	16
254	0xc6	-58
255	0x3f	63

model/conv2d_11/Conv2D i1 [32, 1, 1, 8]
0	0x11	17
1	0x77	119
2	0xf6	-10
3	0x9d	-99
4	0x7f	127
5	0x20	32
6	0xfa	-6
7	0x04	4
8	0xdd	-35
9	0x58	88
10	0xd8	-40
11	0x7f	127
12	0xf0	-16
13	0xe1	-31
14	0xd6	-42
15	0xf6	-10
16	0xef	-17
17	0x08	8
18	0x10	16
19	0x08	8
20	0x81	-127
21	0x1c	28
22	0x1a	26
23	0xf3	-13
24	0xcc	-52
25	0xe3	-29
26	0x3d	61
27	0xc7	-57
28	0x98	-104
29	0x08	8
30	0x21	33
31	0x81	-127
32	0xf2	-14
33	0x88	-120
34	0x46	70
35	0x81	-127
36	0xe1	-31
37	0x0e	14
38	0xba	-70
39	0xf1	-15
40	0x01	1
41	0x7f	127
42	0xea	-22
43	0xaf	-81
44	0x64	100
45	0xa4	-92
46	0xd7	-41
47	0x7b	123
48	0x19	25
49	0x37	55
50	0xe8	-24
51	0xd2	-46
52	0x1d	29
53	0xf9	-7
54	0x12	18
55	0x81	-127
56	0x0c	12
57	0xf7	-9
58	0xe5	-27
59	0xc0	-64
60	0x59	89
61	0xd4	-44
62	0xfd	-3
63	0x81	-127
64	0xf3	-13
65	0xe1	-31
66	0xe7	-25
67	0xfc	-4
68	0x38	56
69	0x81	-127
70	0xf7	-9
71	0x2e	46
72	0xc5	-59
73	0xb0	-80
74	0x10	16
75	0x7f	127
76	0x02	2
77	0x8a	-118
78	0xf9	-7
79	0x36	54
80	0xde	-34
81	0x3b	59
82	0x31	49
83	0xf0	-16
84	0xc7	-57
85	0x04	4
86	0x0e	14
87	0x7f	127
88	0xfe	-2
89	0x64	100
90	0x81	-127
91	0x71	113
92	0xeb	-21
93	0x2c	44
94	0x09	9
95	0x0e	14
96	0xe4	-28
97	0x1c	28
98	0x2f	47
99	0x01	1
100	0xe1	-31
101	0xec	-20
102	0xff	-1
103	0x81	-127
104	0xfa	-6
105	0xe7	-25
106	0xf5	-11
107	0xdd	-35
108	0x07	7
109	0xf6	-10
110	0x7f	127
111	0xfd	-3
112	0xee	-18
113	0x59	89
114	0xe8	-24
115	0x81	-127
116	0x81	-127
117	0x8f	-113
118	0xfb	-5
119	0x9c	-100
120	0xdc	-36
121	0xf9	-7
122	0x81	-127
123	0xf3	-13
124	0x9b	-101
125	0x33	51
126	0x2b	43
127	0xc0	-64
128	0x1d	29
129	0xe0	-32
130	0x81	-127
131	0xbb	-69
132	0xa2	-94
133	0x62	98
134	0x44	68
135	0xdd	-35
136	0xff	-1
137	0xe0	-32
138	0x81	-127
139	0xf8	-8
140	0xee	-18
141	0x22	34
142	0xf7	-9
143	0x0d	13
144	0xd8	-40
145	0x92	-110
146	0x0a	10
147	0x7f	127
148	0x2a	42
149	0x59	89
150	0xfd	-3
151	0x3c	60
152	0x81	-127
153	0x1b	27
154	0x01	1
155	0x04	4
156	0x16	22
157	0x17	23
158	0x0b	11
159	0xc4	-60
160	0x14	20
161	0x03	3
162	0x81	-127
163	0x0a	10
164	0x46	70
165	0x0c	12
166	0xee	-18
167	0xff	-1
168	0xf4	-12
169	0xe1	-31
170	0x7f	127
171	0xeb	-21
172	0xfb	-5
173	0x23	35
174	0x00	0
175	0xcb	-53
176	0xec	-20
177	0xe9	-23
178	0xf0	-16
179	0xf7	-9
180	0x7f	127
181	0x16	22
182	0xdb	-37
183	0xfb	-5
184	0xe2	-30
185	0x7f	127
186	0x18	24
187	0x8f	-113
188	0x1c	28
189	0x29	41
190	0xf4	-12
191	0x01	1
192	0xf2	-14
193	0xf9	-7
194	0x81	-127
195	0xfe	-2
196	0xa8	-88
197	0x21	33
198	0x20	32
199	0xe1	-31
200	0xfc	-4
201	0xf6	-10
202	0x81	-127
203	0xf0	-16
204	0xf0	-16
205	0x19	25
206	0xf8	-8
207	0xd7	-41
208	0x45	69
209	0xe6	-26
210	0x81	-127
211	0xd8	-40
212	0x3d	61
213	0x10	16
214	0xbf	-65
215	0x3f	63
216	0x13	19
217	0xcb	-53
218	0xf3	-13
219	0x2b	43
220	0x02	2
221	0x1e	30
222	0x13	19
223	0x7f	127
224	0x0a	10
225	0xda	-38
226	0x02	2
227	0x05	5
228	0x7f	127
229	0x1b	27
230	0xfa	-6
231	0xde	-34
232	0x0f	15
233	0x28	40
234	0xee	-18
235	0xb9	-71
236	0xf0	-16
237	0x00	0
238	0xdd	-35
239	0x7f	127
240	0x1d	29
241	0xeb	-21
242	0x7f	127
243	0x3e	62
244	0xfe	-2
245	0x52	82
246	0x19	25
247	0x1d	29
248	0xf1	-15
249	0x25	37
250	0x7f	127
251	0x38	56
252	0x07	7
253	0xf8	-8
254	0x18	24
255	0x38	56

model/conv2d_12/Conv2D i1 [8, 1, 1, 32]
0	0xc7	-57
1	0x00	0
2	0x03	3
3	0x12	18
4	0xff	-1
5	0x1f	31
6	0x06	6
7	0x0e	14
8	0xee	-18
9	0xcc	-52
10	0x0e	14
11	0x09	9
12	0x04	4
13	0x0d	13
14	0x18	24
15	0x19	25
16	0x18	24
17	0x7f	127
18	0xeb	-21
19	0xe3	-29
20	0xfd	-3
21	0x00	0
22	0xf8	-8
23	0x18	24
24	0x21	33
25	0x27	39
26	0xe9	-23
27	0x14	20
28	0x03	3
29	0xef	-17
30	0xc2	-62
31	0xe4	-28
32	0x64	100
33	0x0e	14
34	0x30	48
35	0xf4	-12
36	0x33	51
37	0xbe	-66
38	0xb9	-71
39	0xd2	-46
40	0x14	20
41	0x56	86
42	0x26	38
43	0x02	2
44	0x23	35
45	0x35	53
46	0xd4	-44
47	0x22	34
48	0xfe	-2
49	0x6e	110
50	0x40	64
51	0xfe	-2
52	0xd6	-42
53	0x02	2
54	0xcc	-52
55	0xcd	-51
56	0xda	-38
57	0x21	33
58	0xd5	-43
59	0xe1	-31
60	0x42	66
61	0x06	6
62	0x81	-127
63	0xdc	-36
64	0xfd	-3
65	0x05	5
66	0xc7	-57
67	0x2b	43
68	0x14	20
69	0x10	16
70	0xe7	-25
71	0x23	35
72	0xda	-38
73	0x0e	14
74	0xe6	-26
75	0x1a	26
76	0x58	88
77	0x0c	12
78	0xc3	-61
79	0x17	23
80	0xfc	-4
81	0xee	-18
82	0x34	52
83	0xe3	-29
84	0x27	39
85	0x06	6
86	0x37	55
87	0xe6	-26
88	0x14	20
89	0x01	1
90	0x13	19
91	0xf9	-7
92	0x81	-127
93	0x1c	28
94	0xd9	-39
95	0x15	21
96	0xf4	-12
97	0x10	16
98	0xdc	-36
99	0x01	1
100	0x16	22
101	0x43	67
102	0x08	8
103	0xf4	-12
104	0x7f	127
105	0x46	70
106	0xfb	-5
107	0xf2	-14
108	0x1b	27
109	0x13	19
110	0x16	22
111	0x2d	45
112	0x1b	27
113	0x5e	94
114	0xd3	-45
115	0xec	-20
116	0xf5	-11
117	0x06	6
118	0x3c	60
119	0xda	-38
120	0x0c	12
121	0x0e	14
122	0xef	-17
123	0x06	6
124	0x06	6
125	0xdb	-37
126	0x52	82
127	0xfe	-2
128	0xe5	-27
129	0xcf	-49
130	0xdb	-37
131	0xf8	-8
132	0xfa	-6
133	0xe9	-23
134	0xf6	-10
135	0x0a	10
136	0x2c	44
137	0x0a	10
138	0x2c	44
139	0x03	3
140	0xb4	-76
141	0x04	4
142	0xf4	-12
143	0xd1	-47
144	0xf3	-13
145	0x5d	93
146	0x2e	46
147	0x7f	127
148	0xfc	-4
149	0xb0	-80
150	0x5e	94
151	0x17	23
152	0x04	4
153	0xde	-34
154	0xdd	-35
155	0x0c	12
156	0xd0	-48
157	0x0f	15
158	0xe3	-29
159	0xde	-34
160	0x19	25
161	0x07	7
162	0x03	3
163	0x03	3
164	0xbb	-69
165	0x00	0
166	0xe7	-25
167	0xfa	-6
168	0xf2	-14
169	0x14	20
170	0x07	7
171	0xe6	-26
172	0x10	16
173	0x81	-127
174	0xf0	-16
175	0x06	6
176	0x07	7
177	0x10	16
178	0x0f	15
179	0xf1	-15
180	0xf8	-8
181	0x0a	10
182	0x0e	14
183	0xfb	-5
184	0x0f	15
185	0x02	2
186	0xf4	-12
187	0xf3	-13
188	0x06	6
189	0xe6	-26
190	0xeb	-21
191	0xf0	-16
192	0x1f	31
193	0xea	-22
194	0xf6	-10
195	0x1f	31
196	0xc6	-58
197	0xce	-50
198	0x40	64
199	0x0d	13
200	0xff	-1
201	0x16	22
202	0x81	-127
203	0xf6	-10
204	0xac	-84
205	0xfe	-2
206	0x07	7
207	0x2a	42
208	0x17	23
209	0x37	55
210	0xeb	-21
211	0xd5	-43
212	0x06	6
213	0x0f	15
214	0x03	3
215	0xc5	-59
216	0x14	20
217	0x22	34
218	0x01	1
219	0x2f	47
220	0xd1	-47
221	0x75	117
222	0xfc	-4
223	0xdd	-35
224	0xf3	-13
225	0x0d	13
226	0xfc	-4
227	0x13	19
228	0x7f	127
229	0x09	9
230	0x0b	11
231	0x08	8
232	0xf8	-8
233	0x0a	10
234	0x00	0
235	0xab	-85
236	0xee	-18
237	0xbd	-67
238	0xf9	-7
239	0x08	8
240	0x05	5
241	0x0d	13
242	0xff	-1
243	0x05	5
244	0x08	8
245	0xfc	-4
246	0x07	7
247	0x02	2
248	0x0b	11
249	0xf5	-11
250	0xff	-1
251	0x03	3
252	0xf3	-13
253	0x13	19
254	0x03	3
255	0x16	22

model/conv2d_13/Conv2D i1 [48, 1, 1, 8]
0	0xef	-17
1	0x55	85
2	0x3c	60
3	0x1b	27
4	0xfd	-3
5	0xa3	-93
6	0x1b	27
7	0x81	-127
8	0xf7	-9
9	0x2f	47
10	0xe5	-27
11	0xbf	-65
12	0x32	50
13	0x81	-127
14	0x21	33
15	0x95	-107
16	0x23	35
17	0x02	2
18	0x12	18
19	0xfd	-3
20	0xee	-18
21	0xcc	-52
22	0x0f	15
23	0x7f	127
24	0xc9	-55
25	0x0f	15
26	0xf5	-11
27	0xfc	-4
28	0x0f	15
29	0xeb	-21
30	0x01	1
31	0x7f	127
32	0x4c	76
33	0xef	-17
34	0xf6	-10
35	0x81	-127
36	0x8f	-113
37	0x28	40
38	0x40	64
39	0xc6	-58
40	0xd4	-44
41	0x8d	-115
42	0x69	105
43	0x9b	-101
44	0x7f	127
45	0x0e	14
46	0x74	116
47	0x25	37
48	0x82	-126
49	0x7f	127
50	0xba	-70
51	0xba	-70
52	0xf9	-7
53	0x62	98
54	0xac	-84
55	0xf7	-9
56	0x3d	61
57	0x81	-127
58	0x06	6
59	0x27	39
60	0x42	66
61	0xd8	-40
62	0xee	-18
63	0xfa	-6
64	0x0d	13
65	0xee	-18
66	0xba	-70
67	0xec	-20
68	0xfc	-4
69	0x7f	127
70	0x10	16
71	0x7a	122
72	0x7f	127
73	0x3f	63
74	0xa4	-92
75	0xd3	-45
76	0x3d	61
77	0xf1	-15
78	0x37	55
79	0x18	24
80	0x56	86
81	0xf7	-9
82	0xc4	-60
83	0xfb	-5
84	0xa1	-95
85	0xfc	-4
86	0x9c	-100
87	0x81	-127
88	0x84	-124
89	0x7d	125
90	0x72	114
91	0xfd	-3
92	0xe1	-31
93	0x43	67
94	0x7f	127
95	0xc4	-60
96	0xcd	-51
97	0xe1	-31
98	0x81	-127
99	0xb8	-72
100	0x0b	11
101	0xf8	-8
102	0xe0	-32
103	0xaf	-81
104	0xf5	-11
105	0x5b	91
106	0xbd	-67
107	0xd3	-45
108	0xff	-1
109	0x81	-127
110	0x35	53
111	0x76	118
112	0x21	33
113	0xec	-20
114	0xf7	-9
115	0x81	-127
116	0x76	118
117	0x0c	12
118	0x06	6
119	0x21	33
120	0x81	-127
121	0xa7	-89
122	0x25	37
123	0xb4	-76
124	0xbc	-68
125	0xdf	-33
126	0x0a	10
127	0xe7	-25
128	0xf4	-12
129	0x5c	92
130	0xa2	-94
131	0x17	23
132	0x81	-127
133	0x15	21
134	0x10	16
135	0x37	55
136	0x42	66
137	0xbf	-65
138	0x14	20
139	0x7f	127
140	0xf4	-12
141	0x9f	-97
142	0x3d	61
143	0xc7	-57
144	0x2d	45
145	0xe9	-23
146	0xf7	-9
147	0xe6	-26
148	0x7f	127
149	0x2a	42
150	0x5f	95
151	0xc1	-63
152	0x0f	15
153	0xe2	-30
154	0x81	-127
155	0xaf	-81
156	0xe6	-26
157	0xcd	-51
158	0xe3	-29
159	0x25	37
160	0xcd	-51
161	0x16	22
162	0xa9	-87
163	0xc2	-62
164	0x1c	28
165	0x81	-127
166	0x0d	13
167	0x4a	74
168	0xa5	-91
169	0xb6	-74
170	0xec	-20
171	0xf5	-11
172	0x13	19
173	0x09	9
174	0xd7	-41
175	0x81	-127
176	0x81	-127
177	0x79	121
178	0x15	21
179	0x83	-125
180	0xad	-83
181	0x66	102
182	0xb4	-76
183	0x1a	26
184	0x81	-127
185	0xe0	-32
186	0xdf	-33
187	0x05	5
188	0xd3	-45
189	0xb8	-72
190	0xdd	-35
191	0xf2	-14
192	0x7f	127
193	0x55	85
194	0x41	65
195	0x40	64
196	0x18	24
197	0xf5	-11
198	0x03	3
199	0x6c	108
200	0xbf	-65
201	0x2c	44
202	0xa5	-91
203	0x81	-127
204	0x3b	59
205	0x14	20
206	0x3f	63
207	0xe9	-23
208	0x0e	14
209	0x9e	-98
210	0xd5	-43
211	0xf6	-10
212	0xd8	-40
213	0x7f	127
214	0xd7	-41
215	0x57	87
216	0x6a	106
217	0x75	117
218	0xd5	-43
219	0x46	70
220	0x0c	12
221	0x7f	127
222	0x0d	13
223	0x4d	77
224	0x81	-127
225	0x0e	14
226	0xad	-83
227	0x45	69
228	0x59	89
229	0xcf	-49
230	0x00	0
231	0x13	19
232	0xe1	-31
233	0xaa	-86
234	0x30	48
235	0x7f	127
236	0x30	48
237	0x31	49
238	0x50	80
239	0xd0	-48
240	0xc4	-60
241	0xad	-83
242	0x9f	-97
243	0xe2	-30
244	0x43	67
245	0x7f	127
246	0xee	-18
247	0x87	-121
248	0x9f	-97
249	0x7f	127
250	0xe6	-26
251	0x83	-125
252	0x21	33
253	0xe4	-28
254	0x5d	93
255	0x0c	12

model/conv2d_14/Conv2D i1 [8, 1, 1, 48]
0	0x18	24
1	0xce	-50
2	0x1e	30
3	0x49	73
4	0x07	7
5	0xee	-18
6	0x2b	43
7	0x24	36
8	0xc8	-56
9	0xab	-85
10	0xef	-17
11	0x26	38
12	0x26	38
13	0x05	5
14	0x1b	27
15	0xb1	-79
16	0xea	-22
17	0x33	51
18	0x13	19
19	0xcf	-49
20	0xd1	-47
21	0x48	72
22	0x13	19
23	0x96	-106
24	0x42	66
25	0x1d	29
26	0x13	19
27	0x64	100
28	0x27	39
29	0x81	-127
30	0x53	83
31	0x07	7
32	0xc5	-59
33	0xa3	-93
34	0x0c	12
35	0xc7	-57
36	0xc8	-56
37	0x22	34
38	0x0e	14
39	0xe2	-30
40	0x2e	46
41	0xbd	-67
42	0xc7	-57
43	0x11	17
44	0x13	19
45	0x2a	42
46	0x16	22
47	0x42	66
48	0xaf	-81
49	0xca	-54
50	0x47	71
51	0x52	82
52	0xc3	-61
53	0xad	-83
54	0xaa	-86
55	0xf7	-9
56	0x63	99
57	0x81	-127
58	0xc0	-64
59	0xda	-38
60	0x75	117
61	0xc2	-62
62	0x09	9
63	0xc6	-58
64	0x1d	29
65	0x61	97
66	0x20	32
67	0x42	66
68	0x39	57
69	0x5e	94
70	0xa4	-92
71	0x9d	-99
72	0x51	81
73	0x0f	15
74	0xea	-22
75	0x0e	14
76	0x01	1
77	0xfb	-5
78	0xf7	-9
79	0xe9	-23
80	0x3d	61
81	0x35	53
82	0x11	17
83	0x35	53
84	0x98	-104
85	0xd6	-42
86	0xc8	-56
87	0x01	1
88	0x69	105
89	0xfa	-6
90	0x18	24
91	0x28	40
92	0x2f	47
93	0xce	-50
94	0x60	96
95	0xf5	-11
96	0xbc	-68
97	0xf9	-7
98	0x1b	27
99	0xd4	-44
100	0xe7	-25
101	0x1f	31
102	0xe5	-27
103	0xa8	-88
104	0x2b	43
105	0x01	1
106	0x19	25
107	0xa1	-95
108	0x2b	43
109	0x58	88
110	0xdd	-35
111	0x21	33
112	0x94	-108
113	0x0a	10
114	0x08	8
115	0x73	115
116	0x51	81
117	0xea	-22
118	0xac	-84
119	0x57	87
120	0x17	23
121	0xb0	-80
122	0xbd	-67
123	0x09	9
124	0x18	24
125	0x9b	-101
126	0x81	-127
127	0xc7	-57
128	0x4a	74
129	0xee	-18
130	0xff	-1
131	0x2b	43
132	0x26	38
133	0x51	81
134	0x23	35
135	0x0d	13
136	0xea	-22
137	0xdd	-35
138	0x16	22
139	0x0c	12
140	0x0f	15
141	0x6e	110
142	0xce	-50
143	0x06	6
144	0xf4	-12
145	0x06	6
146	0x00	0
147	0xc4	-60
148	0x81	-127
149	0x8d	-115
150	0xf5	-11
151	0x04	4
152	0xe2	-30
153	0xf2	-14
154	0xe8	-24
155	0xb5	-75
156	0x20	32
157	0xed	-19
158	0xa2	-94
159	0xbd	-67
160	0xc6	-58
161	0xbb	-69
162	0x0d	13
163	0x0f	15
164	0x09	9
165	0x03	3
166	0x00	0
167	0xf0	-16
168	0x19	25
169	0xb3	-77
170	0x31	49
171	0x1f	31
172	0xf2	-14
173	0xfd	-3
174	0x17	23
175	0x26	38
176	0x0e	14
177	0x46	70
178	0xdc	-36
179	0x9f	-97
180	0xb4	-76
181	0xb8	-72
182	0x09	9
183	0x46	70
184	0x33	51
185	0xeb	-21
186	0xd9	-39
187	0x25	37
188	0xc3	-61
189	0x19	25
190	0x28	40
191	0x93	-109
192	0x09	9
193	0xa3	-93
194	0xff	-1
195	0x26	38
196	0x7f	127
197	0x16	22
198	0x18	24
199	0xdf	-33
200	0x0c	12
201	0x14	20
202	0x32	50
203	0x05	5
204	0x1a	26
205	0x43	67
206	0x13	19
207	0xd9	-39
208	0xbe	-66
209	0x02	2
210	0xef	-17
211	0xfc	-4
212	0xf6	-10
213	0x16	22
214	0xfb	-5
215	0xbb	-69
216	0x4d	77
217	0x0c	12
218	0xb9	-71
219	0x09	9
220	0x54	84
221	0xe3	-29
222	0x4f	79
223	0xc3	-61
224	0xcf	-49
225	0xd8	-40
226	0x2c	44
227	0x13	19
228	0xe6	-26
229	0x32	50
230	0x02	2
231	0xc2	-62
232	0x28	40
233	0xe4	-28
234	0x01	1
235	0xec	-20
236	0x66	102
237	0x1b	27
238	0x0f	15
239	0x40	64
240	0xea	-22
241	0x86	-122
242	0xe3	-29
243	0x0b	11
244	0xbf	-65
245	0x0d	13
246	0xff	-1
247	0x04	4
248	0x63	99
249	0xcd	-51
250	0xf0	-16
251	0xbe	-66
252	0xda	-38
253	0x3e	62
254	0xdc	-36
255	0xff	-1

model/conv2d_15/Conv2D i1 [48, 1, 1, 8]
0	0x7f	127
1	0xaa	-86
2	0xa3	-93
3	0x1a	26
4	0x86	-122
5	0xe7	-25
6	0xf6	-10
7	0x9f	-97
8	0x2e	46
9	0x32	50
10	0xa4	-92
11	0xc0	-64
12	0x56	86
13	0x28	40
14	0x1a	26
15	0x81	-127
16	0x76	118
17	0xe0	-32
18	0x9c	-100
19	0x08	8
20	0x89	-119
21	0xe5	-27
22	0x81	-127
23	0xb5	-75
24	0x22	34
25	0xe3	-29
26	0x7f	127
27	0x6a	106
28	0x24	36
29	0xce	-50
30	0xf1	-15
31	0x2f	47
32	0x1e	30
33	0x2d	45
34	0xd0	-48
35	0x93	-109
36	0x69	105
37	0xd9	-39
38	0x7f	127
39	0x32	50
40	0xf0	-16
41	0x81	-127
42	0x5a	90
43	0x32	50
44	0x4d	77
45	0xb2	-78
46	0x07	7
47	0x32	50
48	0x4b	75
49	0xe8	-24
50	0xb7	-73
51	0x9f	-97
52	0x6e	110
53	0x65	101
54	0x81	-127
55	0x19	25
56	0xc1	-63
57	0xe1	-31
58	0x7f	127
59	0x7d	125
60	0x99	-103
61	0x2f	47
62	0xaa	-86
63	0x7e	126
64	0x01	1
65	0xf5	-11
66	0x15	21
67	0xc2	-62
68	0x29	41
69	0xb2	-78
70	0x19	25
71	0x81	-127
72	0x46	70
73	0x1a	26
74	0x00	0
75	0xfb	-5
76	0x50	80
77	0x19	25
78	0x2e	46
79	0x81	-127
80	0xfa	-6
81	0xa6	-90
82	0x7f	127
83	0x23	35
84	0x52	82
85	0xf8	-8
86	0x61	97
87	0x78	120
88	0xf0	-16
89	0x56	86
90	0xcd	-51
91	0x7f	127
92	0xd5	-43
93	0xed	-19
94	0xf1	-15
95	0x0b	11
96	0x4a	74
97	0xd7	-41
98	0x7f	127
99	0x57	87
100	0x51	81
101	0x0d	13
102	0x16	22
103	0x4b	75
104	0x78	120
105	0x7f	127
106	0xed	-19
107	0xff	-1
108	0xf5	-11
109	0x10	16
110	0xf4	-12
111	0x47	71
112	0x1e	30
113	0xbd	-67
114	0x59	89
115	0xc2	-62
116	0x7f	127
117	0x18	24
118	0x3a	58
119	0xdb	-37
120	0xd4	-44
121	0x07	7
122	0x7f	127
123	0x08	8
124	0x4e	78
125	0x20	32
126	0x61	97
127	0xe5	-27
128	0xa0	-96
129	0xfb	-5
130	0x81	-127
131	0x8d	-115
132	0xcb	-53
133	0x9a	-102
134	0x2f	47
135	0x37	55
136	0xe5	-27
137	0x07	7
138	0xac	-84
139	0x8f	-113
140	0xd0	-48
141	0x81	-127
142	0x23	35
143	0x0a	10
144	0xdb	-37
145	0x22	34
146	0x7f	127
147	0xe4	-28
148	0x19	25
149	0x06	6
150	0x35	53
151	0x03	3
152	0x59	89
153	0xfa	-6
154	0x7f	127
155	0x19	25
156	0x9c	-100
157	0x4e	78
158	0xe1	-31
159	0xe1	-31
160	0xde	-34
161	0x0c	12
162	0x47	71
163	0x81	-127
164	0x5c	92
165	0xf2	-14
166	0x03	3
167	0x24	36
168	0x81	-127
169	0xd7	-41
170	0xf7	-9
171	0xdd	-35
172	0xed	-19
173	0xb4	-76
174	0xe2	-30
175	0x29	41
176	0xe0	-32
177	0x15	21
178	0x4c	76
179	0x81	-127
180	0x07	7
181	0xa9	-87
182	0x7f	127
183	0xd7	-41
184	0xd9	-39
185	0x1f	31
186	0x1e	30
187	0xff	-1
188	0xf3	-13
189	0x08	8
190	0x21	33
191	0x7f	127
192	0x96	-106
193	0xf6	-10
194	0x29	41
195	0x7f	127
196	0x66	102
197	0x2a	42
198	0x4e	78
199	0xfb	-5
200	0xf7	-9
201	0xfe	-2
202	0xe8	-24
203	0x25	37
204	0x81	-127
205	0xce	-50
206	0x08	8
207	0x25	37
208	0xe8	-24
209	0xa2	-94
210	0xc0	-64
211	0x03	3
212	0x15	21
213	0xff	-1
214	0x34	52
215	0x81	-127
216	0xc8	-56
217	0x1e	30
218	0xbc	-68
219	0xd1	-47
220	0xff	-1
221	0x06	6
222	0x0b	11
223	0x81	-127
224	0x77	119
225	0x61	97
226	0x97	-105
227	0x81	-127
228	0x54	84
229	0x23	35
230	0x47	71
231	0xdc	-36
232	0xe4	-28
233	0x13	19
234	0xfc	-4
235	0x7f	127
236	0x2c	44
237	0xec	-20
238	0x17	23
239	0xe9	-23
240	0xba	-70
241	0xaf	-81
242	0xf3	-13
243	0x81	-127
244	0x12	18
245	0x19	25
246	0xef	-17
247	0xd0	-48
248	0xc6	-58
249	0xf0	-16
250	0x81	-127
251	0xb5	-75
252	0xda	-38
253	0x11	17
254	0x09	9
255	0xc7	-57

model/conv2d_16/Conv2D i1 [8, 1, 1, 48]
0	0xea	-22
1	0xf2	-14
2	0xa7	-89
3	0xef	-17
4	0xc2	-62
5	0xf7	-9
6	0x20	32
7	0xfc	-4
8	0xf7	-9
9	0xfa	-6
10	0xdd	-35
11	0x16	22
12	0x17	23
13	0xdf	-33
14	0xf8	-8
15	0x30	48
16	0x14	20
17	0xdd	-35
18	0x0a	10
19	0x10	16
20	0xfa	-6
21	0xe4	-28
22	0x0f	15
23	0xf4	-12
24	0x9a	-102
25	0x01	1
26	0x2f	47
27	0x81	-127
28	0x42	66
29	0x1b	27
30	0xcd	-51
31	0xe3	-29
32	0x19	25
33	0xd9	-39
34	0x19	25
35	0x35	53
36	0xf5	-11
37	0x1f	31
38	0x29	41
39	0x0d	13
40	0x21	33
41	0xbe	-66
42	0x1d	29
43	0x26	38
44	0xeb	-21
45	0x63	99
46	0xe4	-28
47	0xfb	-5
48	0x4e	78
49	0x11	17
50	0x34	52
51	0xfb	-5
52	0xc8	-56
53	0x0c	12
54	0xce	-50
55	0x34	52
56	0x36	54
57	0xc8	-56
58	0x40	64
59	0x84	-124
60	0x01	1
61	0x23	35
62	0x31	49
63	0x8e	-114
64	0x21	33
65	0xc0	-64
66	0x10	16
67	0xd0	-48
68	0xf7	-9
69	0xc8	-56
70	0x48	72
71	0xe5	-27
72	0x39	57
73	0xdc	-36
74	0x55	85
75	0xf1	-15
76	0x29	41
77	0x14	20
78	0xcb	-53
79	0xee	-18
80	0xe4	-28
81	0xe5	-27
82	0x00	0
83	0x8b	-117
84	0xf4	-12
85	0xc9	-55
86	0x27	39
87	0xc2	-62
88	0xfa	-6
89	0x81	-127
90	0x4a	74
91	0x09	9
92	0xd4	-44
93	0x62	98
94	0x0d	13
95	0x00	0
96	0x17	23
97	0xf6	-10
98	0x3a	58
99	0x1f	31
100	0x2d	45
101	0xcc	-52
102	0xfb	-5
103	0x04	4
104	0xdc	-36
105	0x56	86
106	0xb5	-75
107	0x2f	47
108	0x34	52
109	0xe6	-26
110	0xc1	-63
111	0xc0	-64
112	0x07	7
113	0x54	84
114	0xb6	-74
115	0xeb	-21
116	0xc0	-64
117	0x5c	92
118	0x1e	30
119	0xd3	-45
120	0x50	80
121	0xf4	-12
122	0xfb	-5
123	0x05	5
124	0xe3	-29
125	0x1d	29
126	0xd8	-40
127	0x81	-127
128	0xe5	-27
129	0x43	67
130	0x02	2
131	0xe0	-32
132	0x24	36
133	0xe5	-27
134	0x0e	14
135	0xe5	-27
136	0x2e	46
137	0x35	53
138	0x08	8
139	0xf2	-14
140	0x0c	12
141	0xcc	-52
142	0xea	-22
143	0xd9	-39
144	0xce	-50
145	0xdc	-36
146	0xc7	-57
147	0x22	34
148	0x01	1
149	0xdd	-35
150	0xde	-34
151	0xf9	-7
152	0x17	23
153	0x31	49
154	0x25	37
155	0xf6	-10
156	0x2d	45
157	0xf2	-14
158	0x01	1
159	0xfb	-5
160	0x1f	31
161	0x67	103
162	0x29	41
163	0x03	3
164	0x41	65
165	0x0f	15
166	0xcb	-53
167	0x26	38
168	0x0f	15
169	0xcf	-49
170	0xff	-1
171	0xcb	-53
172	0xcb	-53
173	0x7f	127
174	0xbd	-67
175	0xa1	-95
176	0x4d	77
177	0x9c	-100
178	0xc8	-56
179	0xec	-20
180	0xfa	-6
181	0xde	-34
182	0x72	114
183	0xae	-82
184	0xd4	-44
185	0xce	-50
186	0xec	-20
187	0xfd	-3
188	0x12	18
189	0x2f	47
190	0xaa	-86
191	0xdf	-33
192	0x04	4
193	0x28	40
194	0x01	1
195	0x4e	78
196	0xfb	-5
197	0x0f	15
198	0x28	40
199	0x45	69
200	0xdb	-37
201	0xfb	-5
202	0xd7	-41
203	0x5b	91
204	0x7f	127
205	0xeb	-21
206	0x88	-120
207	0xef	-17
208	0xe9	-23
209	0xfa	-6
210	0x89	-119
211	0x10	16
212	0xc9	-55
213	0xf1	-15
214	0x00	0
215	0xfb	-5
216	0x64	100
217	0x31	49
218	0x41	65
219	0xd1	-47
220	0x34	52
221	0xf7	-9
222	0xf5	-11
223	0xbe	-66
224	0xe6	-26
225	0x44	68
226	0x35	53
227	0x2b	43
228	0x56	86
229	0xe1	-31
230	0xfc	-4
231	0x61	97
232	0x37	55
233	0xe6	-26
234	0x06	6
235	0xc9	-55
236	0x0c	12
237	0x4c	76
238	0x21	33
239	0x16	22
240	0x14	20
241	0xc1	-63
242	0x10	16
243	0xff	-1
244	0xea	-22
245	0xed	-19
246	0xff	-1
247	0x2a	42
248	0x26	38
249	0x1c	28
250	0x2c	44
251	0x0d	13
252	0xff	-1
253	0xff	-1
254	0xfe	-2
255	0xfb	-5

model/conv2d_17/Conv2D i1 [48, 1, 1, 8]
0	0xe1	-31
1	0x76	118
2	0x7f	127
3	0x83	-125
4	0xec	-20
5	0x17	23
6	0xe7	-25
7	0xfc	-4
8	0xa9	-87
9	0xc0	-64
10	0x7f	127
11	0x6e	110
12	0x9b	-101
13	0x20	32
14	0xb1	-79
15	0x03	3
16	0x3f	63
17	0x09	9
18	0x2b	43
19	0x30	48
20	0x81	-127
21	0x04	4
22	0x46	70
23	0x0a	10
24	0x57	87
25	0x81	-127
26	0xb1	-79
27	0x59	89
28	0xd2	-46
29	0xc6	-58
30	0xea	-22
31	0x09	9
32	0x20	32
33	0x23	35
34	0x1c	28
35	0xf5	-11
36	0x09	9
37	0x81	-127
38	0x0d	13
39	0xeb	-21
40	0xaa	-86
41	0xb4	-76
42	0x51	81
43	0x05	5
44	0x81	-127
45	0xfe	-2
46	0xe4	-28
47	0x26	38
48	0x34	52
49	0xa7	-89
50	0x7f	127
51	0x18	24
52	0x65	101
53	0xfc	-4
54	0x21	33
55	0x16	22
56	0xd9	-39
57	0xd3	-45
58	0xc7	-57
59	0x7f	127
60	0xf5	-11
61	0xe8	-24
62	0x5e	94
63	0x17	23
64	0xff	-1
65	0x30	48
66	0x1e	30
67	0xf5	-11
68	0xdc	-36
69	0x81	-127
70	0xe0	-32
71	0xd8	-40
72	0x19	25
73	0xd6	-42
74	0x7f	127
75	0x12	18
76	0x50	80
77	0xfc	-4
78	0xfe	-2
79	0x0d	13
80	0x5d	93
81	0xaf	-81
82	0x03	3
83	0x7f	127
84	0x2b	43
85	0xe7	-25
86	0xd9	-39
87	0xfc	-4
88	0x0d	13
89	0xf2	-14
90	0xf3	-13
91	0x21	33
92	0x02	2
93	0x7f	127
94	0x01	1
95	0x30	48
96	0xe7	-25
97	0x15	21
98	0xf7	-9
99	0x0c	12
100	0xfc	-4
101	0xee	-18
102	0xea	-22
103	0x7f	127
104	0x08	8
105	0x92	-110
106	0x72	114
107	0xab	-85
108	0x7f	127
109	0xc4	-60
110	0x5e	94
111	0x09	9
112	0xa4	-92
113	0xae	-82
114	0xd5	-43
115	0xdb	-37
116	0x7f	127
117	0xc8	-56
118	0x7c	124
119	0x25	37
120	0x6a	106
121	0x4d	77
122	0xc4	-60
123	0x0b	11
124	0x61	97
125	0x7f	127
126	0x0e	14
127	0x46	70
128	0xe2	-30
129	0x0d	13
130	0xeb	-21
131	0x00	0
132	0x00	0
133	0xe7	-25
134	0xf0	-16
135	0x7f	127
136	0x9f	-97
137	0x7f	127
138	0x57	87
139	0xfd	-3
140	0x11	17
141	0x30	48
142	0x54	84
143	0xd7	-41
144	0x7f	127
145	0x8d	-115
146	0xa1	-95
147	0x0e	14
148	0x20	32
149	0xda	-38
150	0xbb	-69
151	0x08	8
152	0x7f	127
153	0x4a	74
154	0x09	9
155	0x2c	44
156	0x21	33
157	0x32	50
158	0x2f	47
159	0xfe	-2
160	0x97	-105
161	0x7f	127
162	0x4a	74
163	0xec	-20
164	0x2f	47
165	0x30	48
166	0x1b	27
167	0xe9	-23
168	0x19	25
169	0x81	-127
170	0x72	114
171	0x81	-127
172	0x7d	125
173	0xe1	-31
174	0x3f	63
175	0xda	-38
176	0x7f	127
177	0x2c	44
178	0x0f	15
179	0x08	8
180	0x2d	45
181	0x1e	30
182	0x41	65
183	0x07	7
184	0x02	2
185	0x98	-104
186	0x18	24
187	0xe1	-31
188	0xfa	-6
189	0x7f	127
190	0xff	-1
191	0xb6	-74
192	0x7f	127
193	0x8d	-115
194	0xf2	-14
195	0xf4	-12
196	0x07	7
197	0xf7	-9
198	0x09	9
199	0x15	21
200	0x7f	127
201	0x9f	-97
202	0xfd	-3
203	0xca	-54
204	0xda	-38
205	0xd6	-42
206	0xb8	-72
207	0x26	38
208	0x12	18
209	0x3d	61
210	0xbb	-69
211	0x06	6
212	0x81	-127
213	0x2f	47
214	0xa2	-94
215	0xc3	-61
216	0x81	-127
217	0xd3	-45
218	0xc0	-64
219	0x15	21
220	0xd8	-40
221	0xfb	-5
222	0x47	71
223	0xd5	-43
224	0x7f	127
225	0x79	121
226	0xfe	-2
227	0x0b	11
228	0x17	23
229	0xcc	-52
230	0x21	33
231	0xdd	-35
232	0x11	17
233	0x28	40
234	0xf5	-11
235	0x0b	11
236	0x1f	31
237	0x0d	13
238	0x81	-127
239	0x02	2
240	0xf8	-8
241	0x49	73
242	0xcb	-53
243	0xed	-19
244	0xd4	-44
245	0xf0	-16
246	0x81	-127
247	0xed	-19
248	0xe4	-28
249	0x2c	44
250	0x92	-110
251	0x81	-127
252	0x1f	31
253	0xdc	-36
254	0x1e	30
255	0xe5	-27

model/conv2d_18/Conv2D i1 [16, 1, 1, 48]
0	0x00	0
1	0x31	49
2	0x19	25
3	0xfa	-6
4	0xe3	-29
5	0x14	20
6	0xe9	-23
7	0x27	39
8	0x37	55
9	0xed	-19
10	0xec	-20
11	0x08	8
12	0x08	8
13	0x1f	31
14	0xfe	-2
15	0x10	16
16	0xc8	-56
17	0xbe	-66
18	0x1c	28
19	0x39	57
20	0xea	-22
21	0xe7	-25
22	0x4e	78
23	0x07	7
24	0xe5	-27
25	0x16	22
26	0x0e	14
27	0x02	2
28	0xcf	-49
29	0x11	17
30	0x18	24
31	0xfa	-6
32	0x12	18
33	0x81	-127
34	0xbb	-69
35	0xe3	-29
36	0xdd	-35
37	0x2d	45
38	0xef	-17
39	0xbe	-66
40	0x0d	13
41	0xff	-1
42	0x0e	14
43	0x2d	45
44	0xf2	-14
45	0x53	83
46	0xc6	-58
47	0xde	-34
48	0x19	25
49	0x1d	29
50	0xaf	-81
51	0xf2	-14
52	0xd6	-42
53	0x34	52
54	0xec	-20
55	0xe3	-29
56	0xf8	-8
57	0x1d	29
58	0xff	-1
59	0xfe	-2
60	0x96	-106
61	0x0f	15
62	0x81	-127
63	0xf0	-16
64	0xf9	-7
65	0x47	71
66	0xda	-38
67	0x19	25
68	0x30	48
69	0x39	57
70	0x1d	29
71	0x11	17
72	0xfb	-5
73	0xe1	-31
74	0x11	17
75	0x0a	10
76	0xfd	-3
77	0xde	-34
78	0x0c	12
79	0xa3	-93
80	0x13	19
81	0xe9	-23
82	0x30	48
83	0x0f	15
84	0xe4	-28
85	0xf1	-15
86	0xd5	-43
87	0xdd	-35
88	0x00	0
89	0xfa	-6
90	0x4c	76
91	0x3a	58
92	0x10	16
93	0x0e	14
94	0xce	-50
95	0x0c	12
96	0x0e	14
97	0x0f	15
98	0x3b	59
99	0xff	-1
100	0x1f	31
101	0x32	50
102	0x02	2
103	0x02	2
104	0x4b	75
105	0xdf	-33
106	0x02	2
107	0xf4	-12
108	0xda	-38
109	0xf8	-8
110	0x29	41
111	0x7f	127
112	0x2a	42
113	0x1c	28
114	0x21	33
115	0xc3	-61
116	0x02	2
117	0xfc	-4
118	0x21	33
119	0x06	6
120	0xe8	-24
121	0xeb	-21
122	0xba	-70
123	0x07	7
124	0x3d	61
125	0xdf	-33
126	0x20	32
127	0xc7	-57
128	0x9a	-102
129	0xd5	-43
130	0xeb	-21
131	0x94	-108
132	0x0b	11
133	0x62	98
134	0x02	2
135	0x02	2
136	0x08	8
137	0x19	25
138	0x39	57
139	0x73	115
140	0xf4	-12
141	0xea	-22
142	0x18	24
143	0x04	4
144	0xa5	-91
145	0xf4	-12
146	0x2d	45
147	0x10	16
148	0x06	6
149	0xe3	-29
150	0xe7	-25
151	0xd2	-46
152	0x0e	14
153	0x3c	60
154	0x5c	92
155	0x14	20
156	0x99	-103
157	0x01	1
158	0xcf	-49
159	0xfb	-5
160	0x25	37
161	0xd0	-48
162	0x2c	44
163	0x09	9
164	0xc2	-62
165	0x30	48
166	0xfd	-3
167	0x09	9
168	0x86	-122
169	0x32	50
170	0xda	-38
171	0x08	8
172	0x14	20
173	0xba	-70
174	0xf5	-11
175	0x7f	127
176	0x1b	27
177	0xe2	-30
178	0x1a	26
179	0x14	20
180	0xdd	-35
181	0xef	-17
182	0xe3	-29
183	0x27	39
184	0xee	-18
185	0x18	24
186	0x55	85
187	0xec	-20
188	0xc5	-59
189	0xfe	-2
190	0xfc	-4
191	0xf6	-10
192	0xad	-83
193	0x3b	59
194	0xee	-18
195	0xb3	-77
196	0x4e	78
197	0x15	21
198	0x10	16
199	0x52	82
200	0x37	55
201	0xff	-1
202	0xc3	-61
203	0x4d	77
204	0x21	33
205	0x02	2
206	0xee	-18
207	0xb0	-80
208	0x74	116
209	0x8b	-117
210	0xcf	-49
211	0x51	81
212	0x6e	110
213	0xbc	-68
214	0xfa	-6
215	0x29	41
216	0xe4	-28
217	0x81	-127
218	0xa9	-87
219	0xd8	-40
220	0x7a	122
221	0x19	25
222	0xcd	-51
223	0xbd	-67
224	0x7b	123
225	0xca	-54
226	0xca	-54
227	0x5f	95
228	0x59	89
229	0xdf	-33
230	0xeb	-21
231	0xd9	-39
232	0xc6	-58
233	0x63	99
234	0x01	1
235	0xfa	-6
236	0x30	48
237	0x8e	-114
238	0x78	120
239	0xf0	-16
240	0x94	-108
241	0x29	41
242	0x81	-127
243	0x23	35
244	0x0a	10
245	0x1e	30
246	0x39	57
247	0x26	38
248	0x47	71
249	0xa0	-96
250	0x2b	43
251	0x12	18
252	0x31	49
253	0xcc	-52
254	0xc2	-62
255	0xae	-82

model/conv2d_19/Conv2D i1 [96, 1, 1, 16]
0	0xb9	-71
1	0xf6	-10
2	0x27	39
3	0x61	97
4	0xdf	-33
5	0xf4	-12
6	0x7f	127
7	0x00	0
8	0x36	54
9	0xce	-50
10	0x1a	26
11	0xd3	-45
12	0x12	18
13	0xd5	-43
14	0x69	105
15	0x28	40
16	0x1e	30
17	0xc6	-58
18	0x5d	93
19	0xa9	-87
20	0x45	69
21	0x2a	42
22	0x53	83
23	0x4d	77
24	0x9f	-97
25	0xf7	-9
26	0xd5	-43
27	0x06	6
28	0x7f	127
29	0x40	64
30	0xf6	-10
31	0x9f	-97
32	0x11	17
33	0x32	50
34	0x39	57
35	0xc2	-62
36	0xd5	-43
37	0x09	9
38	0xff	-1
39	0x81	-127
40	0x09	9
41	0x18	24
42	0x25	37
43	0x60	96
44	0xc1	-63
45	0x06	6
46	0xf4	-12
47	0xfe	-2
48	0xbd	-67
49	0x31	49
50	0xee	-18
51	0x13	19
52	0xe2	-30
53	0x0e	14
54	0x00	0
55	0xd8	-40
56	0x02	2
57	0x2d	45
58	0xcd	-51
59	0xbc	-68
60	0x50	80
61	0x7f	127
62	0xf0	-16
63	0x45	69
64	0x20	32
65	0xf7	-9
66	0x26	38
67	0xc2	-62
68	0x1b	27
69	0xfa	-6
70	0xf4	-12
71	0x15	21
72	0xc7	-57
73	0x2d	45
74	0x40	64
75	0x01	1
76	0x01	1
77	0x81	-127
78	0xf3	-13
79	0xb9	-71
80	0x77	119
81	0xfa	-6
82	0xfb	-5
83	0x9b	-101
84	0xe3	-29
85	0x24	36
86	0x81	-127
87	0xae	-82
88	0x08	8
89	0x42	66
90	0xd3	-45
91	0x24	36
92	0x24	36
93	0x23	35
94	0xaa	-86
95	0xac	-84
96	0x2b	43
97	0x45	69
98	0x5b	91
99	0x99	-103
100	0x00	0
101	0x81	-127
102	0xe7	-25
103	0xb8	-72
104	0x20	32
105	0xa8	-88
106	0xff	-1
107	0xd3	-45
108	0x6c	108
109	0x36	54
110	0xca	-54
111	0x47	71
112	0x7f	127
113	0x36	54
114	0xff	-1
115	0xf4	-12
116	0xcd	-51
117	0x06	6
118	0x1d	29
119	0x1b	27
120	0xd7	-41
121	0x08	8
122	0x17	23
123	0x76	118
124	0x65	101
125	0x0b	11
126	0xbc	-68
127	0x04	4
128	0x7b	123
129	0x42	66
130	0x07	7
131	0x08	8
132	0xd5	-43
133	0x14	20
134	0x1a	26
135	0x28	40
136	0x51	81
137	0x9a	-102
138	0x2f	47
139	0x4b	75
140	0xde	-34
141	0xf9	-7
142	0xfe	-2
143	0x7f	127
144	0xce	-50
145	0xf0	-16
146	0x37	55
147	0xe6	-26
148	0xe6	-26
149	0x34	52
150	0xe2	-30
151	0x0f	15
152	0x81	-127
153	0xe9	-23
154	0x6f	111
155	0xde	-34
156	0xcc	-52
157	0x18	24
158	0x0b	11
159	0x22	34
160	0x7f	127
161	0xeb	-21
162	0x16	22
163	0x11	17
164	0x0b	11
165	0xef	-17
166	0xfe	-2
167	0xe9	-23
168	0xac	-84
169	0xeb	-21
170	0x1b	27
171	0x16	22
172	0x74	116
173	0xe9	-23
174	0x60	96
175	0xf7	-9
176	0xad	-83
177	0xdf	-33
178	0x01	1
179	0x26	38
180	0x11	17
181	0x7f	127
182	0x62	98
183	0xea	-22
184	0xa6	-90
185	0x4d	77
186	0x24	36
187	0x55	85
188	0xe1	-31
189	0x69	105
190	0x77	119
191	0x83	-125
192	0xc5	-59
193	0xc7	-57
194	0x21	33
195	0xdd	-35
196	0xe0	-32
197	0x1f	31
198	0x47	71
199	0xef	-17
200	0x08	8
201	0x3d	61
202	0xff	-1
203	0xec	-20
204	0x81	-127
205	0xd9	-39
206	0xc8	-56
207	0x45	69
208	0x31	49
209	0x20	32
210	0xd8	-40
211	0xc9	-55
212	0xea	-22
213	0x7f	127
214	0x1e	30
215	0xd0	-48
216	0x00	0
217	0x0e	14
218	0xfc	-4
219	0x90	-112
220	0xfa	-6
221	0x1e	30
222	0xb7	-73
223	0xf6	-10
224	0x37	55
225	0xe2	-30
226	0x7b	123
227	0xae	-82
228	0xd8	-40
229	0x00	0
230	0xb1	-79
231	0xc0	-64
232	0xc5	-59
233	0x7f	127
234	0x51	81
235	0x6c	108
236	0x33	51
237	0x1b	27
238	0xbb	-69
239	0xee	-18
240	0x1c	28
241	0xc9	-55
242	0xf2	-14
243	0xf2	-14
244	0xf4	-12
245	0x2b	43
246	0xd6	-42
247	0x56	86
248	0x4f	79
249	0x3a	58
250	0xf9	-7
251	0xe4	-28
252	0x58	88
253	0xfd	-3
254	0x81	-127
255	0xca	-54
